sentiment_classifier.pth (torch, 792760 bytes, 4 tensors)

mlp.0.weight f4 [256, 768]
0	0xbc71ae2b	-0.014750998
1	0xbd35db9f	-0.0443989
2	0xbd3b7f64	-0.045775786
3	0x3c211c0e	0.009833349
4	0x3d5ff65f	0.054678317
5	0xbb49e26d	-0.0030805126
6	0x3d53a0b8	0.051666945
7	0x3b6644aa	0.0035136142
8	0xbd5ea77c	-0.054358944
9	0x3d624fe0	0.055251956
10	0x3ca6e254	0.020371594
11	0xbd4eb69e	-0.050467126
12	0xbc7b0b4b	-0.015322517
13	0x3d013c1e	0.031551473
14	0x3d607e11	0.054807726
15	0x3d2b44ea	0.04181377
16	0xbd810a42	-0.06300785
17	0xbd46a1ee	-0.048494272
18	0x3d3de5e9	0.046361838
19	0xbc25eb9e	-0.010126976
20	0x3cd4ec8c	0.0259917
21	0x3afab21c	0.0019126567
22	0x3c26d71a	0.01018312
23	0xbd0eeec2	-0.034895666
24	0x3c9c6884	0.019092806
25	0xbd049503	-0.03236867
26	0xbcd9b634	-0.026576139
27	0xbc2e027e	-0.010620711
28	0x3c9f5c21	0.01945311
29	0x3d0fb635	0.035085876
30	0xbbb1be34	-0.0054242853
31	0x3d28483e	0.04108452
32	0xbd3af93c	-0.045647845
33	0x3caeb931	0.02132854
34	0x3d502996	0.05082091
35	0xbcb3035b	-0.021852186
36	0xbc8eb18a	-0.017418642
37	0x3990a964	0.00027592026
38	0xbd64a1e1	-0.055818442
39	0xbd9f5a1e	-0.0778086
40	0x3ca3a767	0.019977285
41	0x3abce4b9	0.0014411426
42	0x3a8dcedc	0.0010819095
43	0xbd826305	-0.06366543
44	0x3d0b67dc	0.034034595
45	0xbc824d10	-0.015905887
46	0x3d1c7be7	0.0382041
47	0x3c1a0fd5	0.009403189
48	0xbc856430	-0.016283125
49	0xbcd38c51	-0.025823744
50	0x3be28a87	0.0069134864
51	0xbcb80a1e	-0.022465762
52	0xbbf11842	-0.007357628
53	0x3d51c847	0.05121639
54	0xbcca04ac	-0.02466043
55	0xbc7c6889	-0.0154057825
56	0xbd082e45	-0.03324725
57	0x3c272bd4	0.0102033205
58	0xbd1a4955	-0.03766759
59	0xbc8b7600	-0.01702404
60	0x3ae0eaa0	0.0017159767
61	0xbc6a3ef8	-0.0142972395
62	0x3c4a7c3a	0.0123587195
63	0xbcf1ad6a	-0.029501636
64	0x3cd85290	0.026406556
65	0x3d264017	0.040588465
66	0x3c3a13be	0.011357246
67	0xbc8ef66a	-0.017451484
68	0xbb8c5adc	-0.004283292
69	0xbc5de89a	-0.013544226
70	0x3a84410e	0.0010090189
71	0xbbb08fe4	-0.005388247
72	0x3beb6904	0.0071841497
73	0x3d135afc	0.03597544
74	0xbcc81c05	-0.024427423
75	0x3c85a76c	0.016315185
76	0xbd37af51	-0.04484493
77	0x3d4134f0	0.047169626
78	0x3d83b3dd	0.064307906
79	0xbd4e62fb	-0.050387364
80	0xbb518e51	-0.0031975696
81	0x3cb5251c	0.022112422
82	0xbbf129ab	-0.0073597035
83	0xbccf3b35	-0.025296787
84	0xbd7e8357	-0.062136974
85	0x3d04a953	0.032388043
86	0xbbb20225	-0.0054323846
87	0xbc83d35e	-0.016091999
88	0x3be74e4c	0.0070588943
89	0x3d2b65fb	0.041845303
90	0xbb3bb36c	-0.002864088
91	0xbd0413e6	-0.03224554
92	0x3ca65513	0.020304238
93	0xbb710803	-0.0036778457
94	0xbce20b81	-0.027593376
95	0xbcc0990e	-0.023510482
96	0xbd5b4af7	-0.05353829
97	0x3d54dcda	0.051968433
98	0x3b3ec9c8	0.002911197
99	0x3d756d38	0.059918612
100	0x3c2c7647	0.010526246
101	0x385cad56	5.261352e-05
102	0xbc738ed3	-0.014865595
103	0xbbb6086b	-0.0055552027
104	0x3d1c75f9	0.038198445
105	0x3d47ac3f	0.04874825
106	0x3cb87ddf	0.022520958
107	0xbd3c45b6	-0.04596492
108	0xbd556afc	-0.05210398
109	0xbd312ec2	-0.043257482
110	0xbcee48a9	-0.029087381
111	0x39f480a6	0.00046635157
112	0x3d254616	0.040350042
113	0xbb7e9f38	-0.0038852226
114	0xbd058fa5	-0.032607693
115	0x3aac0a05	0.0013125545
116	0xbbaeaaea	-0.005330433
117	0x3d3c8dac	0.046033546
118	0x3c97b392	0.018518243
119	0x3d165bc0	0.036708593
120	0xbc786a35	-0.0151620405
121	0xbccd0004	-0.025024422
122	0xba176d2c	-0.0005776461
123	0x3c3e36c5	0.011609738
124	0xbc4cc96a	-0.012499193
125	0xbc06a777	-0.008218638
126	0xbd1b80eb	-0.037964743
127	0x3d298ab4	0.041392043
128	0x3c36e9cf	0.011164143
129	0xbd069e94	-0.032866076
130	0x3b8532b7	0.0040648836
131	0x3b208043	0.0024490512
132	0x3d158836	0.036506854
133	0xbcddcfd2	-0.027076636
134	0xbc342cca	-0.010997007
135	0xbc6cde2d	-0.014457268
136	0x3cf05d1d	0.029341275
137	0xbc9d1824	-0.01917655
138	0x3d13c8f2	0.03608031
139	0x3ceda68f	0.029010085
140	0xbc8a9717	-0.016917748
141	0x3bba3be2	0.005683408
142	0x3d5819c4	0.052758947
143	0x3b94a5ea	0.00453638
144	0x3d139a13	0.03603561
145	0xbc201c83	-0.009772423
146	0xbd571b91	-0.052516524
147	0xbba69cd6	-0.0050846143
148	0xbacf4646	-0.001581379
149	0x3d2f94e4	0.042866603
150	0xbb8cdc1d	-0.0042987005
151	0xbc8daf85	-0.017295608
152	0x3c22970b	0.009923707
153	0x3c4fdce2	0.01268694
154	0x3d0e8463	0.034794223
155	0x3c30323d	0.010754165
156	0x3cbabdea	0.022795636
157	0xbcd5430c	-0.026032947
158	0xbc3d33b6	-0.011547973
159	0xbd162edc	-0.036665782
160	0x3d19c823	0.03754438
161	0xba1b0fff	-0.00059151644
162	0x3bb9718f	0.005659289
163	0x3b2e7731	0.0026621337
164	0x3b8a3b36	0.0042184843
165	0xbc56fb71	-0.013121472
166	0x3b8060cd	0.0039177896
167	0xbc070d85	-0.008242969
168	0x3c319489	0.010838636
169	0x3bf96404	0.0076107997
170	0xbcc1a140	-0.02363646
171	0xbc95bd5b	-0.018278768
172	0xbc8b4cc7	-0.017004384
173	0xbcc4bbe1	-0.024015369
174	0xbcfd26b2	-0.03090224
175	0xbcb2da9f	-0.021832762
176	0xbbeaf968	-0.007170845
177	0x3c8ab272	0.016930792
178	0x3cf1c944	0.029514916
179	0x3d3305aa	0.043706574
180	0xbc9b41fd	-0.018952364
181	0xbca0816a	-0.01959296
182	0xbd3e2eef	-0.046431478
183	0x3c7701d5	0.01507612
184	0x3b1526aa	0.0022758641
185	0xbc0edaa6	-0.008719122
186	0x3ce5d6fa	0.02805661
187	0xbc062628	-0.008187808
188	0xbc58633f	-0.013207256
189	0x3d0ee4bf	0.034886118
190	0xbcaf701b	-0.02141576
191	0xbc980d49	-0.018561022
192	0x3c2a8c7a	0.010409469
193	0xbd925fe7	-0.07147198
194	0xbc24c071	-0.010055647
195	0xbcc24ae1	-0.023717346
196	0xbb193707	-0.0023378746
197	0xbd205e51	-0.039152447
198	0x3d1eb305	0.038744945
199	0x3b94fc4f	0.004546679
200	0xbc99db0d	-0.01878121
201	0xbd4c10b2	-0.04982061
202	0x3be598c1	0.007006735
203	0xbd06a6b1	-0.032873813
204	0xbb81dfcf	-0.0039634476
205	0x3cc83fa4	0.024444409
206	0x3cca4b1a	0.024694014
207	0xbd4bcd33	-0.04975624
208	0xbd4ddef4	-0.050261453
209	0xbd47ab8a	-0.048747577
210	0x3d220284	0.03955318
211	0x3d20ed31	0.039288703
212	0xbc4a151c	-0.012334134
213	0x3d323ff6	0.04351803
214	0xbb51cde5	-0.0032013592
215	0x3d29dabd	0.04146837
216	0xbcc3ad13	-0.02388624
217	0xbc9cd801	-0.019145967
218	0x3bf70eca	0.007539605
219	0x3c3c8538	0.011506371
220	0x3d0273b7	0.031848636
221	0xbd42260b	-0.04739956
222	0xbc4d1801	-0.01251793
223	0x3a817e66	0.0009879589
224	0xbc454dfa	-0.012042517
225	0x3c83fe96	0.016112607
226	0xbd099be4	-0.033595935
227	0xbd15db0b	-0.03658585
228	0x3c118766	0.008882379
229	0x3b43a9cc	0.0029855845
230	0x3d429a7b	0.047510605
231	0x3bbae934	0.0057040695
232	0x3cfb1e3e	0.030654069
233	0xbd40a02b	-0.047027748
234	0xbd0388fe	-0.032113068
235	0x3c89b17a	0.01680826
236	0x3ccdfe5a	0.025145698
237	0x3d62556f	0.055257257
238	0x3b15008b	0.002273592
239	0x3d5c774c	0.053824708
240	0xbd25d29d	-0.04048406
241	0xbc92b0a7	-0.0179065
242	0x3b9e228f	0.004825897
243	0x3c691712	0.014226692
244	0xbd58dc03	-0.052944195
245	0x3cafda2a	0.021466333
246	0xbc34da6e	-0.011038406
247	0x3c10c00e	0.008834852
248	0xbccf445c	-0.025301151
249	0x3ce8ce4c	0.028418683
250	0xbbc08c28	-0.005876083
251	0xbd35aff6	-0.044357263
252	0x3c02455c	0.007951107
253	0xbd2be78b	-0.041968863
254	0xbc587855	-0.013212283
255	0xbd9b9738	-0.07597202

mlp.0.bias f4 [256]
0	0xbd09018f	-0.033448752
1	0xbdca7c38	-0.09886974
2	0xbd565174	-0.052323774
3	0xbd9c4f84	-0.07632354
4	0xbda488cf	-0.08033907
5	0xbd468fdb	-0.048477035
6	0xbd6f7adc	-0.058466777
7	0xbd928cac	-0.07155737
8	0xbd9877f7	-0.074447565
9	0xbcf7fd07	-0.03027202
10	0xbe4a9661	-0.19783928
11	0xbbec0555	-0.007202784
12	0xbd4d4862	-0.050117858
13	0xbdbaea98	-0.091267765
14	0xbd53a912	-0.05167491
15	0xbe5f5bcd	-0.21812363
16	0xbd5219d6	-0.05129417
17	0xbd904b8f	-0.07045662
18	0xbca5e46d	-0.020250523
19	0xbcc01739	-0.023448573
20	0xbc14ee05	-0.009089951
21	0xbd2998fc	-0.041405663
22	0xbe3c0583	-0.18361478
23	0xbca10c7c	-0.019659273
24	0xbd4b1c4b	-0.04958753
25	0xbd8650cb	-0.06558379
26	0xbd972279	-0.07379622
27	0xbcf9eb9b	-0.030507853
28	0xbd26c3cc	-0.04071407
29	0xbd5a2dcb	-0.053266328
30	0xbd18e4c5	-0.037327547
31	0xbd689442	-0.056782015
32	0xbd2261a9	-0.039643917
33	0xbc9a5768	-0.018840507
34	0xbd32588d	-0.04354148
35	0xbe37ae1c	-0.17937511
36	0xbd78adc8	-0.060712606
37	0xbd57bc31	-0.052669708
38	0xbda4440d	-0.08020792
39	0xbd8e5b85	-0.0695105
40	0xbd0aa6fa	-0.033850648
41	0xbd46d499	-0.048542593
42	0xbc2a1e74	-0.010383237
43	0xbc968c3a	-0.018377412
44	0xbd5e69d4	-0.054300144
45	0xbdf01cbc	-0.11724231
46	0xbd464482	-0.048405178
47	0x3a6d0ad3	0.00090424455
48	0xbb8c62fc	-0.004284261
49	0xbe100336	-0.14063725
50	0xbb037e84	-0.0020064423
51	0xbda624d5	-0.08112494
52	0xbd99c214	-0.075077206
53	0xbd753cb9	-0.059872363
54	0xbe62c235	-0.22144397
55	0xbc66dedf	-0.014091223
56	0xbd2b6976	-0.041848622
57	0xbd8b357b	-0.0679731
58	0xbba23af1	-0.004950874
59	0xbc3fa558	-0.011697136
60	0xbccc072f	-0.02490577
61	0xbe169b68	-0.1470772
62	0xbd3cddf1	-0.046110097
63	0xbd4956d8	-0.049155086
64	0xbd3e4a39	-0.046457503
65	0xbd12b4ca	-0.035816945
66	0xbe46b585	-0.19405182
67	0xbd7a7e63	-0.061155688
68	0xbd81d40b	-0.06339272
69	0xbd8f7ea5	-0.070065774
70	0xbd3987b9	-0.04529545
71	0xbcbb1dd1	-0.022841366
72	0xbd297e6f	-0.041380342
73	0xbdb193cf	-0.086707704
74	0xbd29941f	-0.041401025
75	0xbd26c75c	-0.040717468
76	0xbc3e046c	-0.011597734
77	0xbd60c149	-0.05487183
78	0xbb19e85d	-0.0023484447
79	0xbd671ff4	-0.056426957
80	0xbcffc091	-0.031219753
81	0xbd60e3a7	-0.054904606
82	0xbeb9d1f7	-0.36293003
83	0xbcba08ee	-0.022709336
84	0xbce660c9	-0.028122323
85	0xbde1ebea	-0.11031325
86	0xbcc37acf	-0.02386227
87	0xbd7f8734	-0.0623848
88	0xbd8d78ac	-0.06907782
89	0x3c1b940f	0.009495749
90	0xbdec4150	-0.11535895
91	0xbd8b5c50	-0.068047166
92	0xbcda86f9	-0.026675688
93	0xbd26e1a1	-0.04074252
94	0xbd53feaf	-0.051756557
95	0xbb40d88f	-0.0029425954
96	0xbd6401b0	-0.05566567
97	0xbd57089c	-0.052498445
98	0xbe8d9613	-0.2765356
99	0xbe65fb3d	-0.22459121
100	0xbd642c7b	-0.055706482
101	0xbd0c2d66	-0.034222983
102	0xbe06f5a1	-0.13179637
103	0x3b16c564	0.0023005838
104	0xbd6c630a	-0.05771164
105	0xbc4fea68	-0.012690164
106	0xbd9aab7d	-0.0755224
107	0xbe5bd937	-0.2146958
108	0xbd3c66be	-0.04599642
109	0xbd07311a	-0.03300581
110	0xbd293839	-0.041313384
111	0xbd269104	-0.04066564
112	0xbd11f638	-0.035635203
113	0xbc93354b	-0.017969748
114	0xbb2f9312	-0.0026790542
115	0xbcac8ac1	-0.021062257
116	0xbddffd5b	-0.109369956
117	0xbc87a998	-0.01656036
118	0xbd113f9b	-0.03546105
119	0xbeaaa91c	-0.33332145
120	0xbdb889a5	-0.090106286
121	0xbd17fe5e	-0.037107818
122	0xbe42e6c5	-0.19033344
123	0xbc761be4	-0.015021298
124	0xbcbfbee9	-0.023406463
125	0xbd37808c	-0.044800326
126	0xbd758567	-0.059941676
127	0xbd9a5345	-0.07535414
128	0xbd48f9c9	-0.04906634
129	0xbd03fa9c	-0.03222142
130	0xbc5a43dd	-0.013321844
131	0xbda98d0b	-0.08278855
132	0xbc367ed6	-0.0111386385
133	0xbad13090	-0.0015959907
134	0xbcc3f816	-0.023922008
135	0xbd4b6b56	-0.04966291
136	0xbcfcb206	-0.030846607
137	0x3abcba13	0.0014398716
138	0xbce13190	-0.027489454
139	0xbd193299	-0.03740177
140	0xbcc89bfe	-0.024488445
141	0xbcf5aa4f	-0.029988436
142	0xbd075c7b	-0.03304718
143	0xbd91c121	-0.071169145
144	0xbce6187f	-0.028087853
145	0xbd2ec524	-0.042668477
146	0xbc209c33	-0.009802866
147	0xbd655350	-0.055987656
148	0xbd2df3e9	-0.04246894
149	0xbdc179c8	-0.09447056
150	0xbd2d51cd	-0.04231434
151	0xbd32beb9	-0.04363892
152	0xbd9d31e2	-0.0767553
153	0xbd5c044d	-0.05371504
154	0xbd1df2d3	-0.038561653
155	0xbda988b6	-0.08278029
156	0xbd8757ce	-0.06608544
157	0xbd1796e5	-0.03700914
158	0xbdf1da7f	-0.11809253
159	0xbd4f1ff3	-0.05056758
160	0xbcd5c075	-0.026092747
161	0xbcf80aff	-0.03027868
162	0xbcc6644b	-0.024217745
163	0xbd694d66	-0.05695858
164	0xbd06e17b	-0.03292988
165	0xbd2cf69f	-0.042227384
166	0xbcfa3d6d	-0.030546868
167	0xbd6bafbb	-0.057540637
168	0xbc89430b	-0.016755601
169	0xbd8bca1f	-0.06825661
170	0xbdce33b9	-0.10068459
171	0xbdf75c20	-0.12078118
172	0xbd0cdb89	-0.034389053
173	0xbda60981	-0.081072815
174	0xbe16161c	-0.14656872
175	0x3a0ca58d	0.0005365245
176	0xbd462f69	-0.048385058
177	0xbcd19853	-0.02558533
178	0xbd61a850	-0.055092156
179	0xbc6c9b5b	-0.0144413365
180	0xbc727853	-0.014799195
181	0xbcd6fce7	-0.02624364
182	0xbd35d2e3	-0.04439057
183	0xbd287d85	-0.04113533
184	0xbc35f6a9	-0.011106172
185	0xbd39e3e0	-0.045383334
186	0xbded0583	-0.11573317
187	0xbd8fe383	-0.07025816
188	0xbd401fe0	-0.0469054
189	0xbd894185	-0.0670195
190	0xbe3dc0d4	-0.1853059
191	0xbd480a76	-0.0488381
192	0xbca1145d	-0.01966303
193	0xbc356849	-0.011072227
194	0x383a3eca	4.4404333e-05
195	0xbcfec9c2	-0.031102065
196	0xbdc6e5de	-0.097118124
197	0xbcc20e4f	-0.023688463
198	0xbde6101a	-0.1123354
199	0xbd2c804b	-0.042114537
200	0xbd8eee87	-0.06979089
201	0xbd5b0d4d	-0.05347948
202	0xbbcb7905	-0.006209495
203	0xbda68046	-0.08129935
204	0xb8fe31cf	-0.000121209414
205	0xbd3f5c8b	-0.046719115
206	0xbd82e1f1	-0.06390751
207	0xbd0034a4	-0.031300202
208	0xbd8dbd70	-0.06920898
209	0xbc464d66	-0.012103414
210	0xbd4a4fad	-0.04939239
211	0xbcfe6ec3	-0.031058675
212	0xbcbe39d7	-0.02322094
213	0xbd0a6ea4	-0.03379692
214	0xbd7f63c8	-0.06235102
215	0xbcfeacab	-0.031088194
216	0xbe0c0950	-0.13675427
217	0xbd4c784d	-0.049919415
218	0xbdff0542	-0.12452175
219	0xbd231ccc	-0.039822385
220	0xbd5b35df	-0.053518172
221	0xbe17b662	-0.14815667
222	0xbdcbf782	-0.09959318
223	0xbd04c68f	-0.032415923
224	0xbd34f381	-0.044177536
225	0xbcde403f	-0.027130244
226	0xbd35c734	-0.044379428
227	0xbd2ae695	-0.041723806
228	0xbd306013	-0.043060374
229	0xbcd07e0f	-0.025450734
230	0xbd876021	-0.06610132
231	0xbcf89e5d	-0.030348951
232	0xbd830b5a	-0.063986495
233	0xbe015a45	-0.12632091
234	0xbca8d84d	-0.020610953
235	0xbd84e642	-0.06489231
236	0xbda6e664	-0.08149412
237	0xbd8031a1	-0.06259466
238	0xbdad25de	-0.08454488
239	0xbd82d139	-0.06387562
240	0xbd38610b	-0.045014422
241	0xbd935ef5	-0.07195846
242	0xbe0acb0b	-0.13554017
243	0xbd8a833e	-0.06763314
244	0xbe59b9c5	-0.21262272
245	0xbd50a784	-0.050941005
246	0xbc507422	-0.012723001
247	0xbd57163c	-0.05251144
248	0xbda1567e	-0.07877825
249	0xbd29ee41	-0.041486982
250	0xbe7f58d4	-0.24936229
251	0xbd82acb5	-0.063805975
252	0xbd238bf8	-0.039928406
253	0xbdc1c052	-0.0946051
254	0xbd141815	-0.03615578
255	0xbccee252	-0.025254402

mlp.3.weight f4 [3, 256]
0	0xbc291b16	-0.010321399
1	0xbccf7844	-0.025325902
2	0xbce277aa	-0.02764495
3	0xbc3f39fc	-0.011671539
4	0x3cb733f0	0.022363633
5	0x3caf5418	0.021402404
6	0x3d40d75f	0.047080394
7	0x3b1c5b58	0.0023858156
8	0x3bdbbccb	0.0067058555
9	0x3aa6dc3e	0.0012730432
10	0xbdebbdc6	-0.11510806
11	0x3bb6d35c	0.005579395
12	0xbc0ee94a	-0.008722613
13	0x3aaee784	0.0013344144
14	0xbcb18ae1	-0.021672668
15	0xbe386672	-0.1800783
16	0xbcbfde3e	-0.023421403
17	0xbc971e4c	-0.018447064
18	0xbd14516e	-0.03621047
19	0x3c49f57b	0.0123265935
20	0xbbe6f872	-0.00704866
21	0x3ce51c3d	0.027967567
22	0xbe990819	-0.2988899
23	0xbcf70085	-0.030151615
24	0xb93d50c4	-0.00018054532
25	0xbd20e196	-0.039277636
26	0x3c623cf4	0.013808478
27	0xbbcf855a	-0.0063330354
28	0x3988634a	0.00026013918
29	0x3c87d8f0	0.016582936
30	0xbc637184	-0.013882045
31	0xbcb3a952	-0.021931324
32	0x3ccbc61f	0.024874745
33	0x3cf082e2	0.029359285
34	0xbc141d3d	-0.009040174
35	0xbe747d72	-0.23875979
36	0x3cf1e136	0.029526334
37	0xbbe1338b	-0.0068725995
38	0xb8d3c68a	-0.00010098245
39	0x3cbdf224	0.02318675
40	0x3ba8c5fe	0.0051505556
41	0x3ca5a117	0.020218415
42	0xbbd3f116	-0.0064679487
43	0x39f3272c	0.00046377757
44	0xbb94a64e	-0.0045364266
45	0xbe6a847a	-0.22902098
46	0xbc22cd3d	-0.009936628
47	0x3bccddf6	0.0062520457
48	0x3bc1eef4	0.005918378
49	0xbd293b4e	-0.041316323
50	0xbbe1030f	-0.0068668197
51	0xbd464453	-0.048405003
52	0x3d1016da	0.035178043
53	0xbb3ccb33	-0.002880764
54	0x3e504f1d	0.2034268
55	0xbc5efadc	-0.013609614
56	0x3cd5aa0d	0.026082063
57	0xbc1fadbe	-0.009746013
58	0xbcc6067b	-0.024173012
59	0xba165d37	-0.0005735936
60	0x3c88eb6b	0.016713819
61	0x3d120fdd	0.03565966
62	0x3c7be7d5	0.015375097
63	0x3d304f88	0.043044597
64	0xbcbd084d	-0.023075247
65	0x3cc3a0b1	0.023880335
66	0xbd35df86	-0.04440262
67	0xbd23aa36	-0.039957248
68	0xbd0ba3f9	-0.034091923
69	0x3cac97e6	0.021068525
70	0xbd2630c2	-0.040573843
71	0xbc95a866	-0.018268775
72	0x3c887d5f	0.016661344
73	0xbd1ba065	-0.03799476
74	0xbbf2f3bd	-0.00741431
75	0xbc66225b	-0.014046277
76	0xbbe1dc77	-0.0068927365
77	0xbbdf5fe3	-0.0068168505
78	0x3b65bc72	0.003505495
79	0xbab4803f	-0.001377113
80	0x3b89dab1	0.0042069783
81	0x3c9e97d5	0.019359509
82	0xbc10c9da	-0.008837188
83	0x3c7302a6	0.014832174
84	0x3c987b7b	0.018613568
85	0x3c2a9d99	0.010413551
86	0x3c35fec3	0.011108103
87	0x3c0e3885	0.0086804675
88	0x3d0522b9	0.032503817
89	0x3c0d0f5e	0.008609621
90	0xbd438517	-0.047734346
91	0xbd2892ed	-0.041155744
92	0x3c06d9a9	0.008230605
93	0x3cc96cb6	0.02458797
94	0x3d436d14	0.047711447
95	0xbb70f5d8	-0.0036767628
96	0xbc0576f7	-0.008146039
97	0xbd30f082	-0.043198116
98	0x3e9dcc94	0.30820143
99	0xbd67412a	-0.05645863
100	0xbcbe3c57	-0.023222132
101	0x3c1e49d2	0.009661155
102	0x3c876deb	0.016531905
103	0x3d66d1ff	0.05635261
104	0xbbce91ab	-0.006303986
105	0xbd5df3a8	-0.054187447
106	0x3e6b8b90	0.23002458
107	0xbe8c4f52	-0.27404267
108	0xbd08318c	-0.033250377
109	0x3d138e68	0.03602448
110	0x3c46682c	0.012109797
111	0x3b60cd93	0.003430222
112	0x3cc093bd	0.023507947
113	0xbd01cc0e	-0.031688742
114	0xbbf19088	-0.007371966
115	0xbcf7a7c5	-0.030231366
116	0x3d99b687	0.075055175
117	0xbcbc4f76	-0.022987109
118	0x3d3f3ffc	0.04669188
119	0x3db7688c	0.089554876
120	0x3cc8ba3c	0.024502866
121	0xbd16c069	-0.03680459
122	0xbcd9ea5c	-0.02660101
123	0xbbfbf256	-0.007688801
124	0xbcd29529	-0.02570589
125	0x3d296061	0.04135168
126	0xbc54e790	-0.012994662
127	0xbc74bcaf	-0.014937564
128	0xbc41b5ba	-0.011823112
129	0xbc640cfd	-0.013919112
130	0xbc99a7ac	-0.01875671
131	0x3e4055c6	0.1878272
132	0x3c3270d1	0.010891155
133	0xbc06c9de	-0.00822684
134	0xbb7f9561	-0.003899895
135	0x3c10ab41	0.008829893
136	0xbc746a67	-0.014917946
137	0x3d2dd935	0.042443473
138	0x3bd8c1b7	0.0066148895
139	0xbd016939	-0.03159449
140	0x3dac4624	0.08411816
141	0xbb99bd54	-0.004691759
142	0xbc416d99	-0.011805915
143	0xbc962cf1	-0.018331977
144	0x3cdf0ff4	0.027229287
145	0x3cc1e682	0.023669485
146	0x3ca1fc3a	0.019773591
147	0x3c5148d3	0.01277371
148	0xbc70ee47	-0.014705247
149	0xbd5c1c37	-0.053737845
150	0x3c85e80d	0.016346002
151	0x39d511c4	0.00040639762
152	0xbd2ac0ac	-0.041687652
153	0x3ab93003	0.0014128688
154	0xbc2a3b6a	-0.010390142
155	0xbd2967c7	-0.041358735
156	0xbc020be4	-0.007937405
157	0xbc22e874	-0.009943116
158	0x3d2ab559	0.041676853
159	0xbc8ae8c6	-0.016956698
160	0x3c4a16b2	0.012334513
161	0xbcebe25a	-0.028794456
162	0xbd5afe1a	-0.053464986
163	0xbc8fb376	-0.017541628
164	0x3be908fe	0.0071116677
165	0x3b7e18d6	0.0038772128
166	0xbcba1fb7	-0.022720201
167	0xbba4eb0c	-0.0050329026
168	0xbc8e65b9	-0.01738249
169	0xbadc93f2	-0.0016828759
170	0x3e402e11	0.18767573
171	0xbe950c01	-0.2911072
172	0xbcda41fe	-0.026642796
173	0x3caf855d	0.021425897
174	0xbd1edd2c	-0.038785145
175	0x3d1afbf2	0.03783793
176	0x3c2270ee	0.00991462
177	0x3cf067d4	0.029346384
178	0xbcd49124	-0.025948115
179	0xbcb45112	-0.022011314
180	0xbc827edc	-0.015929632
181	0xbc964ed9	-0.018348144
182	0x3c2d035b	0.010559882
183	0x3c1049fb	0.008806701
184	0xbc08d795	-0.00835218
185	0xbc7ec0e7	-0.015548921
186	0x3ec2f948	0.38080812
187	0xbcf796bc	-0.030223243
188	0x3b00d9d2	0.001966108
189	0x3cc370a2	0.023857418
190	0xbbb61bc7	-0.0055575105
191	0x3d8e0d5f	0.06936144
192	0x3c14fece	0.009093953
193	0xbba8f956	-0.0051566763
194	0x3c3fede7	0.011714435
195	0xbbb7c865	-0.0056086057
196	0xbd7e8029	-0.06213394
197	0xbc2ce9eb	-0.010553817
198	0xba7dee81	-0.0009686724
199	0x3d7c620a	0.061616935
200	0x3c93cb27	0.018041207
201	0xbc8144ed	-0.015779937
202	0x3c860711	0.016360791
203	0x3c46d004	0.012134556
204	0xbc051ea1	-0.008124978
205	0x3cc4f76f	0.024043767
206	0xbb98d4db	-0.004664046
207	0xbbb703ae	-0.0055851554
208	0xbd98ac68	-0.07454759
209	0x3bcfc676	0.006340797
210	0xbd45118f	-0.04811245
211	0x3cb83149	0.022484438
212	0x3be0022d	0.006836197
213	0xbba373dc	-0.0049881767
214	0xbbde7c41	-0.0067897146
215	0x3be19b2f	0.0068849544
216	0xbc680488	-0.014161237
217	0xbca2de90	-0.019881517
218	0xbe337dff	-0.17528532
219	0x3c62cae1	0.013842315
220	0xb8d70e25	-0.000102546335
221	0x3cac36d7	0.021022243
222	0xbd52183b	-0.05129264
223	0xbca6c6eb	-0.020358523
224	0x3cc2acd5	0.023764053
225	0x3cf3c490	0.029756814
226	0xbc1367ff	-0.008996963
227	0x3bb29905	0.0054503703
228	0x3baf04b5	0.0053411373
229	0xbc52e978	-0.012873046
230	0xbd378508	-0.044804603
231	0x3be448e2	0.006966696
232	0xbd6ff49f	-0.0585829
233	0x3c6ba20d	0.014381898
234	0x3c0ef3d4	0.008725125
235	0xbc1633d8	-0.009167634
236	0xbcded1e3	-0.027199691
237	0xbc88cad9	-0.016698288
238	0x3cd1c198	0.025605008
239	0xbb664ff4	-0.003514287
240	0xbc0fc45d	-0.008774844
241	0x3c802994	0.015644826
242	0x3bb79c0b	0.0056033186
243	0x3c1c2205	0.009529595
244	0xb9c6f5cd	-0.0003794864
245	0xbd1835b2	-0.037160583
246	0x3d1d3583	0.03838111
247	0x3d47a8b2	0.048744865
248	0x3d11a0d9	0.035553787
249	0xbb9b9460	-0.0047479123
250	0x3c829525	0.015940258
251	0xbd1e54ef	-0.038655218
252	0x3c65c5ab	0.0140241785
253	0x3c27a7b1	0.010232852
254	0xbeadd610	-0.3395238
255	0xbcfc1475	-0.030771473

mlp.3.bias f4 [3]
0	0xbe1a354a	-0.1505939
1	0x3efc8304	0.49318707
2	0xbef48cd4	-0.47763693
